models/model.pth (torch, 874783 bytes, 6 tensors)

hidden_layers.0.weight f4 [256, 784]
000000 d5 82 8b 3c 52 7e 4b 3d ed 36 f5 3c d8 2d 4e 3d
       0.017030159 0.049681015 0.029933417 0.05033669
000010 47 df 4a 3d 59 e5 a5 3d 5e d8 0a 3d 3f f4 18 3d
       0.04952934 0.08100385 0.03389775 0.037342306
000020 9c b9 86 3d 3b 00 4a 3d 0a 53 6f 3d 59 a6 ad 3c
       0.06578371 0.049316626 0.0584288 0.021197485
000030 72 3d f7 3c f1 a2 27 3d f6 96 a1 3d 9f 63 9c 3d
       0.030180667 0.040926877 0.07890122 0.07636189
000040 30 ff 72 3d a0 1a 80 3c 85 3b a4 3c 91 3f 9f 3d
       0.059325397 0.015637696 0.020047912 0.07775796
000050 75 f9 85 3d 17 97 7b 3d 98 35 da 3c 82 72 4c 3d
       0.06541721 0.061423387 0.026636884 0.04991389
000060 f3 56 73 3d 07 f6 99 3d 70 b4 98 3d 91 aa 8b 3d
       0.059409093 0.07517629 0.07456291 0.06819642
000070 fd a6 d8 3c dd 0b 82 3d 1a 68 a1 3d 64 9c 42 3d
       0.026446814 0.06349919 0.07881184 0.047512427
000080 66 3f af 3c 58 2a 37 3d cf b0 0a 3d ee 3f 81 3d
       0.021392535 0.044718117 0.033860024 0.06311022
000090 3a 08 72 3d 98 6e 3e 3d 90 2c b4 3c cd f5 4b 3d
       0.059089877 0.04649219 0.021993905 0.04979496
0000a0 6d a3 6c 3c 1a 15 23 3d e5 30 8f 3d 55 06 ac 3c
       0.014443261 0.039815046 0.06991748 0.020999113
0000b0 b0 37 fe 3b fc f7 2c 3d a7 05 7c 3d 7a b2 70 3d
       0.0077581033 0.042228684 0.061528828 0.05876396
0000c0 67 8a 58 3d 6d 84 a7 3d 67 87 8f 3d bc 56 87 3d
       0.052866366 0.08179555 0.07008248 0.0660834
0000d0 ae e9 95 3d a8 73 5f 3c d6 17 29 3d d9 ac 08 3d
       0.073199615 0.013638414 0.041282497 0.033367965
0000e0 0b 7f 24 3d e9 6f 40 3d 94 9c c9 3c 73 e2 2b 3d
       0.04016022 0.046981726 0.024610795 0.041964006
0000f0 5c e9 65 3c 2c c2 4a 3d bd 7c 7a 3d 18 99 9e 3c
       0.014032688 0.049501583 0.061154116 0.01936011
000100 31 9f 4d 3d cd b6 f0 3c e5 ac 33 3d 33 1c 8a 3d
       0.050200645 0.029384041 0.043866057 0.0674366
000110 e2 e0 81 3c 22 62 91 3d 62 43 2b 3d 32 d9 c1 bc
       0.015854303 0.070987955 0.041812308 -0.023663137
000120 13 9f 2b bc 53 72 27 3b e1 88 d6 bc 82 2e d9 bc
       -0.010474938 0.002555032 -0.026188316 -0.026511434
000130 7b 31 d9 3c 7d e4 10 3d bd 1d b4 3b b9 99 22 3c
       0.026512852 0.035374153 0.005496709 0.009924346
000140 98 ca ab 3d 16 00 ff 3c 38 05 50 3d c2 ef 3d 3d
       0.08388251 0.03112797 0.050786227 0.04637123
000150 0a 0a 6a 3d 9a 37 82 3d 95 76 0e 3d 6c 0d 39 3d
       0.05713848 0.063582614 0.034781057 0.045178816
000160 9c ee 97 3c 4f 80 5f 3d 4a ba f4 3c 0a 02 13 3d
       0.018546395 0.054565724 0.029873986 0.035890616
000170 6e f5 3b 3d ea 6a b8 3c a0 66 fd 3c 6f 36 54 bc
       0.045888357 0.022511918 0.030932724 -0.012952431
000180 3f 2b 9c bc 2c 73 12 bd 2b c6 3f be 73 31 46 be
       -0.01906359 -0.035754368 -0.18727939 -0.19354801
000190 b9 1e 3d be 5e fe 3b be a7 b9 e4 bd 08 96 b1 bd
       -0.18468751 -0.18358752 -0.11168223 -0.08671194
0001a0 48 df a9 3d af 5c e4 3d e0 46 1d 3e d8 4e e3 3d
       0.08294541 0.111504905 0.15359068 0.110990226
0001b0 de 8a 62 3d a1 0d 4f 3d c2 a5 83 3d f5 3b 29 3d
       0.055308215 0.050550107 0.064281 0.041316945
0001c0 35 bb 5f 3d 79 48 c1 3c f8 7a 8a 3d 82 2f 42 3d
       0.054621894 0.023594128 0.06761736 0.04740859
0001d0 a8 85 11 3d 9e f5 49 3d ff 12 a8 bb ef b8 13 bd
       0.035527855 0.049306504 -0.0051292176 -0.03606504
0001e0 bf 09 55 bd aa 93 7d 3c f8 bb 74 bc 10 a6 82 bd
       -0.052011248 0.0154771 -0.014937393 -0.0637933
0001f0 cc 51 9e bc e3 51 79 bd c8 f4 62 bd 4f 9f 91 3c
       -0.019326113 -0.06086911 -0.055409223 0.01777616
000200 f6 a2 16 3d ff 07 b8 3e 81 d2 df 3d 18 e8 c7 bc
       0.036776505 0.359436 0.10928822 -0.024402663
000210 d0 09 04 3d 41 5f dc 3d 05 78 30 3d 47 4d bb 3d
       0.03223592 0.10760356 0.04308321 0.09145599
000220 36 5c de 3c b4 37 11 3d 43 e5 c3 3d 52 73 54 3c
       0.027143579 0.035453513 0.095652126 0.012966948
000230 0d bc d3 3c 4f bb 82 3d 7c 6f 9a 3d 32 78 ad 3b
       0.025846506 0.063833825 0.07540795 0.0052938694
000240 5f 64 1b 3d f8 36 d6 3c 7d 5e 28 bc 4f 81 b0 bd
       0.03793752 0.026149258 -0.010276434 -0.08618414
000250 db 41 79 bd 1e b4 8a bd fc 50 d4 bd 4a 2c 9e 3e
       -0.06085382 -0.06772636 -0.10367009 0.30893165
000260 a0 62 25 3f 75 93 89 3e fa 1c 6b be 99 47 64 be
       0.64603615 0.26870313 -0.22960272 -0.22292937
000270 a4 f0 a9 be ce 5d 27 3e a0 de bb 3e 46 68 35 3e
       -0.33191407 0.16344377 0.36693287 0.17715558
000280 13 bc da 3c 84 00 2d 3e 33 e9 73 bd 71 43 cd bd
       0.026701009 0.16894728 -0.059548568 -0.10022629
000290 0f 0e 92 3d 78 d0 41 3e dd 9b 99 3c ca 87 46 3d
       0.07131588 0.18927181 0.01875108 0.048469342
0002a0 7b 33 ab 3d 18 4c 53 3d c8 a8 fa 3c 93 3a db 3c
       0.083594285 0.05158624 0.03059806 0.026761329
0002b0 48 0c e9 3c 3d 9a 4e 3c bf 4f ee bd bb dc 9a bd
       0.028448239 0.012610015 -0.11636304 -0.07561632
0002c0 25 04 3e be 43 83 4f bd 2d b9 98 3d 38 f1 db 3e
       -0.18556269 -0.05066229 0.074571945 0.42957473
0002d0 18 d5 58 3f 4d d9 1b 3f 41 36 70 3e 10 24 35 be
       0.84700155 0.6087845 0.23458196 -0.17689538
0002e0 4a ee 2b bf 1f 0a 01 bf d7 1b f5 be 36 ea b2 3e
       -0.67160475 -0.5040607 -0.47872803 0.34944314
0002f0 11 55 58 bd 4f 56 0a 3e 72 0f 44 3e 5c 71 4c 3e
       -0.0528155 0.13509487 0.19146517 0.19965118
000300 73 84 23 bd 70 8d 4b 3d 2d fb d2 bc 7f a9 12 3d
       -0.039921235 0.049695432 -0.025754536 0.035806175
000310 2f 41 94 3d 53 03 81 3d 51 69 16 3d 82 1e 68 3c
       0.07238995 0.06299462 0.03672153 0.01416743
000320 5c e8 ab 3c f0 84 b1 3c f5 d5 d3 bc 39 c9 5e be
       0.020984821 0.021669835 -0.025858859 -0.21756448
000330 7e c3 ee be 5b c6 bf bd 5b 9d 7d 3c 53 f1 8d 3e
       -0.46633524 -0.09364005 0.015479411 0.27723178
000340 d5 83 04 3f 38 9b 33 3e 66 09 6d be c1 a8 2b bd
       0.5176366 0.1753968 -0.23148116 -0.041908983
000350 3d 88 1d bf af 48 be be ba bc 11 3d 97 1c 20 be
       -0.6153601 -0.37164828 0.035580374 -0.15635906
000360 c6 ad 8d be 33 1a 78 3e d2 29 d2 3e 61 91 ea 3e
       -0.2767164 0.24228744 0.4104753 0.4581404
000370 28 1c 15 3e ec 37 1c 3d d7 3e 12 3e ad d2 0d 3d
       0.14561522 0.03813927 0.14281784 0.034624744
000380 7d f2 52 3d b9 c3 fe 3c 19 33 7f 3d c8 ba 67 3d
       0.051500786 0.031099187 0.06230459 0.056574613
000390 af b5 70 3c 8d 01 9f 3c 7a b3 6f 3d 48 61 c7 bd
       0.014691754 0.01940992 0.05852077 -0.09735352
0003a0 5f 81 b4 be fe b9 9d 3b a0 f0 99 3d a4 3c be 3e
       -0.35254952 0.0048134318 0.07516599 0.3715564
0003b0 a9 28 86 3f 0e 38 3a 3f 09 05 cf bd 72 b6 64 bd
       1.0481158 0.7274178 -0.10108382 -0.055838056
0003c0 5b 7a 08 be d7 f6 91 3c 26 d7 ef bc 60 a2 12 be
       -0.13327925 0.017817898 -0.029277395 -0.14319754
0003d0 f2 2a 0d be a9 47 39 3e d6 1c bd bd 9e fc 2f 3e
       -0.13785914 0.18093742 -0.09234016 0.1718621
0003e0 24 e8 29 3e 0b ac 26 3e d8 9c fa 3d de f9 80 3d
       0.16592461 0.16276567 0.12236947 0.062976584
0003f0 9b 6a 5c 3d f4 c0 75 3d 7e d4 24 3d cc 59 84 3d
       0.053812604 0.059998468 0.04024171 0.0646244

hidden_layers.0.bias f4 [256]
000000 23 d4 84 bd 23 16 73 bd 45 11 a3 bd ac 8f 83 bd
       -0.06485774 -0.059347283 -0.07962278 -0.064238876
000010 7e a9 0b bd 1f df 96 bc 52 6c b6 bc c0 4a 01 3d
       -0.034097187 -0.01841694 -0.022268448 0.031565428
000020 b5 de d0 3c 0a d4 93 bc fd c4 41 bd 25 d7 0d bd
       0.02549682 -0.018045444 -0.047307003 -0.034629006
000030 67 12 9a bc d5 cb 34 bd 7b 3e eb bc a2 92 27 bd
       -0.018807603 -0.044139702 -0.028716316 -0.040911324
000040 d0 9c 21 bd c1 29 f0 bd 99 83 4d bd c8 17 be bc
       -0.03945619 -0.11726714 -0.05017433 -0.0232047
000050 04 a9 8c bc d8 77 88 bc df 06 24 bd f6 c6 05 bd
       -0.017170437 -0.016658708 -0.040045615 -0.032660447
000060 06 35 9c bd 44 40 5f 3c e7 9c 12 be 89 39 95 bc
       -0.07627301 0.013626162 -0.14317666 -0.018215911
000070 8d 8e 65 bb 0d 8c 17 bd 47 4c 93 bd 11 fa 20 bc
       -0.0035027594 -0.036998797 -0.07192283 -0.0098252455
000080 ba 77 8b bd d7 fd 07 bd 6e 6b fe bc 96 fd cd bd
       -0.068099454 -0.033201065 -0.031057086 -0.10058133
000090 e9 a1 30 bc 74 4a d1 bc fe f8 24 bd f8 4c 79 3c
       -0.01078079 -0.025548197 -0.04027652 0.015216105
0000a0 7d 83 9d bd 56 17 9c bd 6c 23 d1 bc 08 40 8e bc
       -0.07691095 -0.076216385 -0.025529586 -0.017364517
0000b0 1e d2 ad bd 12 7a 44 bd e8 87 1a bd a4 83 f6 bb
       -0.08487342 -0.047967978 -0.037727267 -0.007523017
0000c0 45 ec 22 bd 4d fa 92 bd ef bf 39 bd d0 76 b0 3c
       -0.039776105 -0.07176647 -0.045349058 0.02154103
0000d0 c1 3f 29 3c 47 f9 15 bb 02 72 88 bd 4d 45 2c b9
       0.0103301415 -0.0022884177 -0.0666237 -0.00016429015
0000e0 1f 45 81 bd 5d 99 47 3c 9c 33 2f bd 37 ce fd bc
       -0.06312012 0.012182561 -0.042773828 -0.03098212
0000f0 4e 99 9b bd a9 7a 23 bc 85 29 2c bc 46 9f 23 bc
       -0.075976 -0.009977975 -0.010507946 -0.009986704
000100 2d a6 00 bd 83 66 6f bc 6d 1c cd bb 46 f1 a8 bd
       -0.031408478 -0.014611843 -0.006259492 -0.08249144
000110 02 b9 93 39 ef 0e 9a 3b 8c 5d 7e bc 17 43 a2 bb
       0.00028175866 0.0047014873 -0.015525233 -0.0049518454
000120 03 c2 5e 3c c3 bb 1d bd dd 9f ea bd 4b 37 0a bd
       0.013596061 -0.03850914 -0.11456273 -0.033744138
000130 59 53 0f bd b8 ac 47 3c f9 44 94 bd 68 74 f6 ba
       -0.034991596 0.012187175 -0.07239718 -0.0018803002
000140 3c f2 94 bc b9 a2 82 bc fe 29 5c bd e2 9b 3c bd
       -0.018181913 -0.015946733 -0.053750984 -0.0460471
000150 82 9f 10 3c 3e 09 c5 bc 66 4e ec bc bc c8 5e bd
       0.008827092 -0.024052259 -0.028845977 -0.054390654
000160 47 d7 31 3c 4c 1e ab bc 59 66 54 bd fc 2b 89 3b
       0.010854549 -0.02088847 -0.05185542 0.0041861515
000170 86 74 d3 bd 24 b6 34 bd 27 17 c2 bd 48 da 2d bd
       -0.103249595 -0.044119015 -0.09477072 -0.042444497
000180 63 39 fe bc f6 16 5c bb b0 b3 03 bd 40 e8 06 bc
       -0.031033223 -0.0033583022 -0.032153785 -0.008234084
000190 1e 4b 44 bd 7d 3e 3f bd 5f cb ba bc 2f 89 ef bc
       -0.0479232 -0.046690453 -0.022802053 -0.029240219
0001a0 b3 40 4c 3c 4f 9e a2 bc 52 44 5a bd ff 22 23 bd
       0.012466597 -0.019850878 -0.05328781 -0.039828297
0001b0 2a a4 c5 bc 19 79 97 bd b4 7b b5 bc 95 36 90 bd
       -0.024126131 -0.073961444 -0.022153713 -0.07041661
0001c0 90 0d d3 ba f6 87 59 bd 0f cd b8 bc d8 6f ee bd
       -0.0016102064 -0.053108178 -0.022558717 -0.11642426
0001d0 27 70 8e bc 5f 97 9f ba 19 f7 99 bd 1a 29 fb bb
       -0.017387463 -0.0012175849 -0.07517833 -0.007664812
0001e0 51 a2 fe bc 27 4b 81 bd 09 0d 21 3c 49 d6 00 bd
       -0.031083258 -0.06313162 0.009829768 -0.03145436
0001f0 5e c0 d4 bc 15 6a 88 3c 62 e1 9e bd 2e 66 10 bd
       -0.025970634 0.016652146 -0.07757832 -0.035253696
000200 a9 b8 e5 bd a1 5f 34 bd 0b 82 2c bc 51 4b 0b bd
       -0.11216862 -0.04403651 -0.010529052 -0.034007374
000210 30 10 05 bd 67 40 1d bc af 78 20 bd 68 7a 9a bd
       -0.03248614 -0.009597874 -0.039177593 -0.075428784
000220 6c 70 9f bc 4a 67 2e bd d5 f2 8e 3c 2f 02 12 bd
       -0.019462787 -0.042578973 0.017449776 -0.035646614
000230 dd 1b 97 bd 26 aa 66 bc 7a 5e 9d bd 26 1b 49 bd
       -0.073783614 -0.0140786525 -0.076840356 -0.049098156
000240 e0 3a a2 bc d3 37 6f bc 7d c7 07 3b f9 52 27 bd
       -0.019803464 -0.014600712 0.002071827 -0.040850613
000250 32 e9 11 bc b7 83 ad bd 21 7c 0e bd ed c4 b7 3b
       -0.008905696 -0.08472388 -0.034786347 0.005608192
000260 38 0f 88 3c 08 24 b8 bc fb 0d 76 bc ee f4 c9 bc
       0.01660882 -0.022478119 -0.015017982 -0.024652924
000270 08 47 47 bd 5b 4b 53 bc 22 f8 11 bd 93 79 12 3c
       -0.048651725 -0.012896384 -0.03563703 0.008940118
000280 c6 76 ae bd a8 2e 2c bd 43 0a 12 bd 03 2b c3 bc
       -0.08518748 -0.042036682 -0.035654318 -0.02382422
000290 d1 98 af bc 8e 5b 09 3b 6f 59 e6 3b bd 5f a9 bd
       -0.021435173 0.0020959112 0.0070297043 -0.08270214
0002a0 da 85 dd bc a5 30 a4 bd ba 8d 6d bc 31 51 3c bd
       -0.027041364 -0.08017091 -0.014499122 -0.045975868
0002b0 08 4e 43 bd e4 18 0b bd ac 73 39 bc 51 21 0f bd
       -0.04768184 -0.033959284 -0.011319082 -0.034943882
0002c0 76 2a 15 bd d0 08 5c bd 57 d5 0c bd e6 75 85 bc
       -0.036417447 -0.05371934 -0.034383144 -0.01629157
0002d0 39 3e e5 bd 1c 4b 42 bd 11 21 2d bd 2e 24 77 bc
       -0.11193509 -0.04743491 -0.042267863 -0.0150843095
0002e0 2a 1a cf b9 a8 19 bb bc 64 37 6f bd 8e 65 7b bd
       -0.0003950161 -0.022839382 -0.058402434 -0.061376147
0002f0 03 35 92 bc a7 48 3c 3c 35 ff d1 bc 96 9b da bc
       -0.017847544 0.011491931 -0.025634388 -0.026685517
000300 d9 da d6 bc cc f2 35 3b 08 9d 7d 3c 5d bf 72 bc
       -0.026227402 0.0027763126 0.015479334 -0.014816132
000310 9b 01 90 3b 0f 93 d4 bc 4f c0 c3 bc 96 7a 4d bd
       0.0043947226 -0.02594903 -0.02389541 -0.050165735
000320 0b 88 7b bd b5 e9 ac bd 14 8a d0 bc 2c e4 30 3c
       -0.061409038 -0.084430136 -0.025456466 0.010796588
000330 97 56 51 bd 38 fb 4d 3c 5d 62 1c bc 9e f3 33 3c
       -0.05110797 0.012572102 -0.009544936 0.010983376
000340 10 6d a2 bc 7c 7e d5 bc 88 5a 93 bd 45 95 ff bc
       -0.019827396 -0.026061289 -0.07195002 -0.031199107
000350 24 d0 be bc c8 a8 40 bd ce 2c 3e bb af b7 2e bc
       -0.023292609 -0.047035962 -0.0029018405 -0.010663911
000360 a3 6b d6 3c d7 93 2e 3c cf 05 5f bd 77 3b 41 bd
       0.026174372 0.010655365 -0.0544489 -0.04717585
000370 b2 12 f6 bc 9f 0e 9e ba ce a8 cb bc ef ca c1 bc
       -0.030038211 -0.0012058801 -0.024860766 -0.023656337
000380 83 96 0f bd 96 b9 37 bd e8 2d 9c bc 23 c3 34 bd
       -0.03505565 -0.044854723 -0.019064859 -0.04413141
000390 65 73 75 bd d9 6e 5b 3c 9c b0 7a bd 8b 4c 8c bc
       -0.059924502 0.013393127 -0.061203584 -0.017126342
0003a0 d1 ff 24 bd e5 26 8f bd 52 eb 8d 3c 73 d2 24 3c
       -0.040283028 -0.069898404 0.017324124 0.010059941
0003b0 ec af d5 bd 4a 4f 92 bd 3f 1f 17 bd d9 87 9e bd
       -0.10433945 -0.071440294 -0.036895033 -0.07740755
0003c0 cb 69 3c bd 69 f7 3a bd cb 16 5a bd 32 94 04 be
       -0.04599933 -0.045646105 -0.053244393 -0.12947157
0003d0 ae 79 b1 bc 98 10 7b bd 7c 25 81 bc 53 56 b3 bc
       -0.021664467 -0.061295122 -0.015764944 -0.021891749
0003e0 d3 75 09 bd bb f9 a2 3b 1d 90 f8 3a 6a c5 8e 3c
       -0.03355963 0.004973618 0.0018963848 0.017428119
0003f0 52 36 5a bd d3 f8 76 bc f7 b7 ef 3b bc e2 47 3c
       -0.05327446 -0.015073973 0.0073156315 0.012200054

hidden_layers.1.weight f4 [64, 256]
000000 b6 79 af bd 82 97 62 be 97 c2 af 3d 39 2b d6 3e
       -0.085681364 -0.22128108 0.08582037 0.4182985
000010 1e 50 82 bc 3b 35 71 3e 3b 8e 05 bf 9c e0 84 3d
       -0.015907343 0.23555462 -0.5217015 0.06488153
000020 ec 9a 13 3d d4 f8 8b 3d 33 f8 ff 3c 79 b1 3c be
       0.036036417 0.068345696 0.03124628 -0.18427075
000030 8f 19 f6 bc 09 28 98 bc a5 c6 92 bc 91 3f 9b bd
       -0.030041484 -0.018573778 -0.017916987 -0.07580484
000040 b2 e3 05 bd ae 95 03 3d ec 53 e2 3c dc 60 32 3d
       -0.03268785 0.032125168 0.027627908 0.043549404
000050 27 0d 0f 3c b9 f9 b6 bb 49 fc b3 bb dc 40 30 3c
       0.008731163 -0.0055839685 -0.005492721 0.010757651
000060 74 a7 3d 3c 5a 74 92 bd 19 ef 9d bd 9c cb 5b 3e
       0.0115755685 -0.071510985 -0.0771162 0.2146439
000070 f4 76 33 bc 9c 1c a5 3c eb c6 96 bc de 38 2d bd
       -0.010953654 0.020155244 -0.018405398 -0.04229056
000080 a1 d7 87 bb 52 5d 60 3d 55 62 a3 3c ad e6 05 be
       -0.004145578 0.054776497 0.01994435 -0.13076277
000090 2d 30 98 3c 32 d3 8f 3c 21 08 2c 3d a6 d6 6b bc
       0.01857766 0.01755676 0.04199994 -0.014394438
0000a0 c1 66 9f bd 3d ae a5 3e f6 1e 84 3d 15 19 47 3d
       -0.077832706 0.32359496 0.06451218 0.048607904
0000b0 7d ef 4c be de 87 83 3e 97 5e 67 3c c8 35 aa 3c
       -0.20013233 0.25689596 0.014121673 0.020777598
0000c0 fb 1f 6e bb a0 01 9c 3e ec 1d 8e bc 99 0c e5 3b
       -0.003633498 0.3046999 -0.017348252 0.006990027
0000d0 65 e5 90 b9 c8 f0 a3 bc 03 f5 b2 bd 55 90 f9 bb
       -0.00027636733 -0.020012274 -0.087381385 -0.0076160827
0000e0 24 2c 95 3d 0a 15 81 3b b4 50 71 3d 9d ca 22 be
       0.0728381 0.0039392756 0.058914855 -0.15897603
0000f0 a5 5b 82 3e 65 c4 b0 3c df 86 2a 3d df 7e 11 3d
       0.25460544 0.021578023 0.04163253 0.035521384
000100 33 81 f9 3e 77 f2 d7 3c 9d df c1 3c 50 8b 35 be
       0.48731384 0.026360733 0.023666197 -0.17728925
000110 3b 73 89 bc ee 1f 8a 3c 3d e2 72 3d 78 a6 40 3d
       -0.016778579 0.016860928 0.05929779 0.047033757
000120 4f 6a 27 3d 45 24 0c 3d 65 b2 42 bd b7 25 0d bd
       0.04087287 0.034214277 -0.04753341 -0.034459796
000130 98 95 3a 3d d0 2d 25 3d fa ba e8 3d 13 ad d9 3c
       0.04555282 0.040326893 0.11363788 0.026571786
000140 51 08 2d be 13 3d a3 3c 46 ab 13 bc 0c e7 9c 3d
       -0.16897704 0.019926583 -0.009013003 0.07661256
000150 62 c1 2f bd fe c7 17 bc a2 ff ec 3d dc 97 34 3d
       -0.042909034 -0.00926399 0.115721956 0.044090137
000160 9a 00 f0 3c f2 93 67 3d 74 c6 17 3d 8e f6 c4 3c
       0.029297162 0.056537576 0.037054494 0.024043348
000170 5f 4f 2b 3c 75 e4 be 3c cf 44 88 be 6c 65 66 bd
       0.010455935 0.023302296 -0.26614997 -0.056249067
000180 69 af 8e bd 7a 64 9b bd 4b da fd 3a f3 ad f6 b9
       -0.069670506 -0.07587524 0.0019367425 -0.0004705038
000190 25 a4 fd 3c 74 51 9a 3c ec 5a 95 3b 96 94 51 3e
       0.03096206 0.018837668 0.004557958 0.20466837
0001a0 10 4f d8 bc d2 cd 7b 3d a6 b0 b3 3c 89 dd 0e 3c
       -0.026404887 0.061475582 0.021934818 0.00871981
0001b0 db ac da 3c c7 b6 ad 3d e6 17 aa bb 8a 3b a6 bd
       0.026693752 0.08482128 -0.005190837 -0.08116825
0001c0 9e 33 03 bb 58 44 d0 3c 5c 25 5a bc 80 38 8f 3d
       -0.002001978 0.025423214 -0.013314571 0.069931984
0001d0 dd 32 43 3c 05 1f e1 bd 2d 50 dd be 4b f2 ee 3c
       0.011913982 -0.10992245 -0.43225232 0.029168269
0001e0 97 32 fc bc db e9 ac be 1a 03 9e 3c c6 8d f4 bc
       -0.030785842 -0.33772168 0.019288588 -0.02985276
0001f0 44 8d 30 3d 10 cd 43 bd 31 9c 39 3e cc c7 26 3e
       0.04310347 -0.047802985 0.18125989 0.16287154
000200 89 aa 21 3e c6 b2 34 bf 2b e6 f6 bc ae b9 1f bd
       0.1578771 -0.70585287 -0.03013905 -0.038995437
000210 19 f0 a2 3c f9 ea 05 bd bd bb 91 bd 01 8e 97 bd
       0.019889878 -0.03269479 -0.07115886 -0.07400132
000220 04 62 92 3d 20 1a cf bd 04 cf e8 bb 83 ea f7 bc
       0.07147601 -0.10112405 -0.0071047563 -0.030263191
000230 e6 d3 07 be 2a 35 b7 3c 0c 73 2b 3e 5c 65 4a bd
       -0.13264427 0.022364218 0.16743106 -0.04941307
000240 56 1c 36 bf 15 2d 07 3d 62 3f 4f bc 4b e2 4e be
       -0.7113699 0.033001978 -0.012649389 -0.20203511
000250 24 71 3f 3d 13 6f e2 3b 99 bf b2 3c 50 40 51 3d
       0.04673876 0.0069102137 0.021819877 0.051086724
000260 62 6e 6e 3d 48 b4 90 be c2 c9 80 bc b2 e6 98 3d
       0.058210738 -0.28262544 -0.015721206 0.07465877
000270 1f f9 e8 bc b1 ef 0b be 0c a0 bf bc 6e f5 81 3c
       -0.028439103 -0.13665654 -0.023391746 0.0158641
000280 7d fc 4d bb 65 0e 0d 3e e5 23 ec 3c 6c f3 a0 3d
       -0.0031431012 0.13775022 0.02882571 0.07858929
000290 fd a7 39 3d 13 a5 ca bd 5d 88 5a bd 20 5e 20 3d
       0.04532622 -0.09894767 -0.053352702 0.039152265
0002a0 8e d2 76 3c 62 b0 ba bd 37 e7 14 bd 87 6d fd bb
       0.015064849 -0.091156736 -0.036353316 -0.007734004
0002b0 3a 41 98 bd 06 2f 97 3d 7c b3 6f bd 43 48 22 3d
       -0.07434316 0.07382016 -0.05852078 0.039619695
0002c0 61 75 12 bd 09 54 0a bb e8 8a 92 bd 17 72 d3 bb
       -0.035756472 -0.0021107218 -0.071554005 -0.0064528096
0002d0 e9 fe 58 3e ee f4 43 3d ab 4f d9 be cb 81 40 3d
       0.2119099 0.047841005 -0.42443594 0.04699878
0002e0 c2 a5 4d 3c 39 8e d0 bc b9 82 41 3d 58 96 b9 3d
       0.012551727 -0.025458442 0.047243807 0.09061879
0002f0 6d 32 5a 3e 69 a4 91 bc 2b 1b 86 3d 11 fa b1 bd
       0.21308298 -0.017778592 0.06548151 -0.086902745
000300 26 92 12 bd 6c 0b 7f ba 76 9f 27 3c 73 bd 29 3d
       -0.03578391 -0.000972918 0.01023089 0.04144044
000310 ba 67 1a 3d 60 db a1 3c cd 15 e8 3d c2 52 9c bc
       0.037696578 0.019757926 0.11332283 -0.01908243
000320 3c 50 12 3d 2e aa 96 3e 82 6f fd be 47 bc 3f 3b
       0.03572105 0.29426712 -0.49499136 0.002925651
000330 85 7a 23 bd 9c c4 8f bd b5 ea 9f 3d cc c8 24 bd
       -0.039911766 -0.07019922 0.07808439 -0.040230557
000340 a3 36 36 3c d4 5b 1c 3c d6 99 39 bd de b2 b7 3c
       0.011121425 0.009543378 -0.045312725 0.022424158
000350 ed 1f 84 bd a4 49 36 be 30 9b 7c 3c ac 2a 9b 3a
       -0.06451402 -0.17801529 0.015417859 0.0011838279
000360 44 90 92 bd d1 7e 15 3d 67 73 70 3d 90 8b 04 3d
       -0.07156423 0.036497895 0.058703806 0.03235966
000370 ae a5 7e bc 15 7d 0c bd 3e 04 19 bd a0 9c f1 bb
       -0.015542431 -0.034298975 -0.03735756 -0.0073734075
000380 f0 7c 8a 3d e8 7c ea bc ad 4e 27 3d 06 4e be be
       0.06762111 -0.028624013 0.040846515 -0.37168902
000390 79 54 e2 3d 71 0f ba 3c 60 cb c2 be a7 99 99 bc
       0.11051268 0.022712441 -0.38045788 -0.018750025
0003a0 e2 35 95 3d 42 29 61 3e fc 57 01 3e 87 7e cf 3e
       0.07285668 0.21988395 0.1263122 0.4052622
0003b0 ec e5 a4 bd db ee 26 3c 44 46 70 bc 7b 48 12 3d
       -0.080516666 0.0101887835 -0.01466519 0.035713654
0003c0 24 e3 dc 3d cf 9d 55 3d 09 0c 09 3c 2f eb 1b 3e
       0.10785511 0.05215245 0.008364686 0.15226434
0003d0 09 e1 13 3c aa 47 57 3e 37 7a ac 3e 0c 1d 5d bd
       0.0090258205 0.21023431 0.33686993 -0.05398278
0003e0 4c b5 69 bc 02 49 0f bd 7a b2 d6 bc 1c 21 21 3c
       -0.014264416 -0.034981735 -0.026208151 0.009834554
0003f0 84 30 f3 3c f8 e3 b2 bb b9 99 2c bd fd 72 1c 3d
       0.02968622 -0.005459305 -0.04213879 0.0381956

hidden_layers.1.bias f4 [64]
000000 d7 c0 91 bf 6a 6e 14 be b0 9f 0c 3f fb 41 36 be
       -1.1386975 -0.14495245 0.54931164 -0.17798607
000010 57 2e de be aa fa 2f bf f8 2e 51 bd 62 f1 0b 3f
       -0.4339473 -0.6874186 -0.051070184 0.54665196
000020 c0 de 2d 3f 5c a5 55 3f d2 b0 67 3e f2 8b eb be
       0.67918015 0.83455443 0.22626045 -0.46005207
000030 56 c0 f4 be 31 b7 31 3e ec 1b f4 3f bf 35 44 be
       -0.4780299 0.17355038 1.9071021 -0.19161128
000040 2b cd 9b be c0 97 74 3e 76 10 d8 3f 11 90 3c 3f
       -0.30429968 0.23886013 1.6880023 0.7365733
000050 d2 ca e7 3d f8 3f 50 3f 7b 88 99 3f 1e 80 2a 3f
       0.11317982 0.8134761 1.1994776 0.6660174
000060 94 25 db 3f 1a 58 ac 3f 93 d5 5b bf 4b fc 56 3e
       1.7120843 1.3464386 -0.85872763 0.2099468
000070 73 2c 04 be db d7 0a 3f 89 20 21 be 24 9d 02 3f
       -0.12907581 0.5423562 -0.15735067 0.5102103
000080 0e dc d5 be f1 e4 8a bd 4f 19 34 3e c5 6b 48 bf
       -0.4176945 -0.06781948 0.1758778 -0.78289443
000090 f0 9d 60 3e 0a d0 95 be f1 61 41 3f ba 1e 60 3f
       0.21935248 -0.29260284 0.7554007 0.87546885
0000a0 82 c6 1d 3f 8f 29 be 3f 54 82 14 bf 24 93 3c bd
       0.61631024 1.4856433 -0.58011365 -0.04603876
0000b0 04 0b f7 3e 84 71 9c 3f ec 9c 9c 3f 46 48 e0 be
       0.48250592 1.2222142 1.2235389 -0.4380514
0000c0 6f 25 62 3e 51 69 3f 3e c0 65 1f 3f b9 cc 59 be
       0.22084592 0.18692519 0.62264633 -0.21269502
0000d0 d5 5c b4 3d 96 a5 02 3f 56 0d 89 bf 30 0f 54 3e
       0.08806769 0.51033914 -1.0707195 0.20708919
0000e0 96 50 28 3f cf 02 9c 3d b2 f1 1d be 78 79 5b 3f
       0.65747964 0.07617723 -0.1542423 0.8573222
0000f0 57 9b 96 3f ba f0 86 be 81 7c 09 3f 23 dd f6 3c
       1.1766156 -0.26355535 0.537056 0.030134743

output.weight f4 [10, 64]
000000 de a9 b2 bd e6 99 2a be 9e 9f b5 bd ab 2d 19 bd
       -0.08723806 -0.1666027 -0.08868335 -0.037397068
000010 0b f3 f4 3d 39 98 28 be d9 95 97 be 57 2b 33 3e
       0.11960419 -0.16464318 -0.29606512 0.17497002
000020 e1 12 8a 3d 15 ed 3f bd 57 ca 56 bd 3c 1a 95 be
       0.06741882 -0.04685696 -0.05243906 -0.29121578
000030 8e 21 10 be cf df fc 3d 8e c8 ad 3c 98 82 ae 3d
       -0.140753 0.123473756 0.021213796 0.085210025
000040 a3 31 05 bd 9f 04 18 be fc 5d 48 bd 06 3e 62 3d
       -0.03251804 -0.14845513 -0.048917755 0.05523493
000050 1e 9e e0 3d e6 35 b5 bd b6 24 70 3c 5b f8 c1 bd
       0.109676585 -0.08848171 0.01465719 -0.09471198
000060 f3 c7 cc 3d f4 95 cc bd 4e 59 0f 3e 9e b8 2c bd
       0.09999075 -0.09989539 0.13998911 -0.042168252
000070 8c b7 fa bd a4 12 22 bd 13 8b 44 be b3 74 81 bd
       -0.1224204 -0.03956856 -0.19193678 -0.06321087
000080 39 20 de bd ec 07 b6 bd 4f 70 f6 bd d2 d3 5d 3d
       -0.1084599 -0.0888823 -0.1203314 0.054157086
000090 0e e9 ff 3d ce 2d 1c be 07 b3 2a 3e 89 cc 08 3c
       0.124956235 -0.15251848 0.16669856 0.008349546
0000a0 03 cd 93 bd 27 8d de 3d d1 82 1e 3e ef c1 de 3d
       -0.07216837 0.108667664 0.1547959 0.10876834
0000b0 72 73 ea 3d a2 2a 8c bd 20 86 4b bd 09 a1 08 3d
       0.11447801 -0.06844069 -0.04968846 0.0333567
0000c0 f7 e6 70 be 15 f5 09 be b8 15 1b be b6 63 8c bd
       -0.23525606 -0.13472398 -0.15145004 -0.06854956
0000d0 6a 8a 71 3b b7 62 0c 3e 68 e5 c9 bd c3 f0 86 bd
       0.0036856183 0.13709532 -0.09858209 -0.065888904
0000e0 6b 86 b2 3d 84 10 ba bd bd 29 81 3b 2f fe 77 ba
       0.087170444 -0.09085181 0.003941743 -0.00094601786
0000f0 89 e3 22 3e 64 e2 9b bc 41 77 3b be a5 5e b8 3d
       0.1590711 -0.01902885 -0.1830721 0.09002427
000100 b1 6f 14 3e 6f 3b 8e 3d 8a fe fe 3d e0 5d 87 be
       0.14495732 0.0694493 0.12450893 -0.26438808
000110 64 05 d4 bd a7 7d 85 3d 85 b5 c0 3d b9 d1 70 3d
       -0.10352591 0.06518107 0.09409622 0.058793757
000120 a2 c5 ca be f8 5d cd 3d 31 f5 2d 3d 3b 98 06 bd
       -0.39603907 0.10027689 0.04247016 -0.032860022
000130 8c fc 7f 3d e9 fc dd bc 5a d4 f2 3c 06 1d c2 bc
       0.062496707 -0.027098136 0.029642273 -0.02369548
000140 8b fe 2c bd 02 63 55 3c b5 10 25 be f5 2c 0b be
       -0.04223494 0.013024094 -0.16119654 -0.13591368
000150 9c f3 0a bc ac 04 c9 3d 83 0e 82 3b b2 3d b8 bd
       -0.008480933 0.09815344 0.003969015 -0.089961424
000160 bc 13 35 be f4 1d cf 3d b3 57 3a be d0 9a ca 3d
       -0.1768331 0.10113135 -0.18197517 0.098928094
000170 d6 82 5f be f5 e5 c5 3d 99 46 b2 3d a8 5c 9f 3d
       -0.21827254 0.096630014 0.08704872 0.07781345
000180 49 a3 3a 3e 7e 00 8f 3d e1 76 7f 3c 41 11 19 3e
       0.18226351 0.06982516 0.015592308 0.14947988
000190 62 44 27 bd e9 96 a0 bd 87 31 21 3e c2 5a c6 bd
       -0.0408367 -0.07841284 0.1574155 -0.096852794
0001a0 14 02 06 3e 2d c3 47 be d2 e4 a9 bd 5f c2 5c be
       0.1308673 -0.19508047 -0.08295597 -0.21558522
0001b0 8a 4e 48 be f7 c9 b8 bd 4e a6 1e 3e ed bb e1 3a
       -0.1956121 -0.09022897 0.15493128 0.0017222144
0001c0 b0 5d aa 3d 8b f4 a5 bd d9 1b b4 3d 0d 39 d4 3d
       0.08318651 -0.081032835 0.08794374 0.10362444
0001d0 27 a9 76 be 19 ab be be dd 6c ff 3d 0e ac 5d bd
       -0.24087964 -0.37239912 0.12471936 -0.054119162
0001e0 a5 f7 88 bd 73 cc 5c be 3a f7 39 3d e6 ce bd 3d
       -0.066878594 -0.21562366 0.04540179 0.09267978
0001f0 6b b9 6d 3c 9a 44 7c 3d 1a 4e 89 bd 34 f3 fb bd
       0.014509539 0.06158886 -0.0670435 -0.12302247
000200 55 98 fd 3d 5a 85 fa 3d 58 93 65 bd c4 c0 09 3d
       0.12382571 0.12232466 -0.05604872 0.0336311
000210 ab dd e0 bd 0d d3 a0 bd ad f8 33 be 21 ff ab bd
       -0.1097978 -0.07852755 -0.17575331 -0.08398271
000220 54 31 ab bd ef 31 88 bd 0f 9f c8 bd 11 07 7b be
       -0.08359018 -0.06650149 -0.09795963 -0.24514414
000230 d3 07 2a be 2d 34 27 3a db 41 48 bc 3b 55 01 3e
       -0.16604547 0.0006378319 -0.012222732 0.12630169
000240 ef ae b3 3d e1 10 6b 3d 42 6e 0d be f5 f1 99 bc
       0.087736 0.057389144 -0.13811591 -0.018792132
000250 b9 2d 7e bc a7 b8 f5 3d 18 b9 6f bc 3a ed 00 3e
       -0.015513831 0.1199811 -0.014631532 0.12590495
000260 8a cf 8d bd 6a 2b 6f 3d eb 9d 9c bd bf c4 f5 bd
       -0.069243506 0.058391012 -0.07647308 -0.12000417
000270 23 39 e2 3b 13 61 02 bc d4 a4 87 3d 80 38 5f bc
       0.006903784 -0.007957715 0.06623235 -0.0136243105
000280 f4 5f cd 3d d4 66 03 3e 85 9b ef 3d 29 97 d3 bd
       0.10028067 0.12832195 0.11699585 -0.10331566
000290 d1 18 28 bd 84 d7 f9 3d 51 27 7a bc c3 98 b2 3c
       -0.04103929 0.121993095 -0.015268163 0.021801358
0002a0 06 e6 28 bd 6d af b7 bd 89 56 02 3e 38 63 46 3d
       -0.041234992 -0.08969007 0.12728323 0.048434466
0002b0 31 db c3 bd b4 5a a2 3d 6d f7 01 bd c4 ba 0d bc
       -0.09563292 0.079274565 -0.031730104 -0.008650485
0002c0 ef f9 0e be 34 e6 c2 bd 12 37 ab 3d 63 f7 7a 3d
       -0.1396253 -0.09516564 0.08360113 0.061271083
0002d0 95 a2 94 3d df 34 c7 3d 1f f3 cb 3d 66 7c 95 bd
       0.072575726 0.09726881 0.09958481 -0.07299118
0002e0 47 b4 e7 3d c4 0a e2 bd 3f 91 ab 3d 91 b8 69 be
       0.11313682 -0.1103721 0.08377313 -0.22824313
0002f0 4a 97 af 3c 41 e7 59 bd 96 16 5c be 6e 44 b0 3d
       0.021434445 -0.053199057 -0.21492991 0.08606802
000300 1e 44 ea 3d 4c c5 01 3e 05 3a 36 3d 4c 29 2f be
       0.114387736 0.12672919 0.044488925 -0.17105597
000310 e0 57 2b bc dd 72 21 3e 13 e9 f2 bd 8b ee c4 bd
       -0.010457963 0.15766473 -0.11860862 -0.09615811
000320 3a 3f 02 be 76 d1 30 bd d9 e5 28 be 98 28 be bd
       -0.12719432 -0.043168508 -0.1649393 -0.092850864
000330 97 1b 40 be 7b b4 fb 3b e3 81 6f 3c 74 37 0a be
       -0.18760525 0.007681427 0.01461837 -0.13497716
000340 0b 88 c1 bc 28 da 3c 3d 3a de e2 3d 5d cc a0 3d
       -0.02362444 0.046106488 0.110775426 0.07851479
000350 e3 98 ba 3d ce 92 ff 3d c0 3b 0f 3e ca 35 21 3e
       0.09111192 0.12479173 0.13987637 0.15743175
000360 fb 72 53 3c 7a 5c e8 bd c7 9e bd bc af f2 a9 bd
       0.012905831 -0.113457635 -0.023147 -0.08298241
000370 92 05 12 bd a2 fb 11 be 6e 87 a2 3d 03 7d 90 bd
       -0.035649844 -0.14256147 0.079359874 -0.07055094
000380 8e c2 8a 3c bb 6b df bd 7c a5 37 bd 16 ce 14 3e
       0.016938474 -0.1090922 -0.044835553 0.1453174
000390 87 af f0 3d 28 25 81 3d 91 a5 40 be 44 68 32 bd
       0.11752229 0.06305915 -0.18813159 -0.043556467
0003a0 eb f1 44 bd 0a da 7b bd 03 67 f1 3d 2a 55 0c be
       -0.048082273 -0.061487235 0.11787226 -0.13704363
0003b0 4e ed 1d bd 8d 38 64 bd 3f dc 3d be 59 d8 3d 3d
       -0.03855639 -0.055717994 -0.18541048 0.046348903
0003c0 08 e1 d2 3d 22 64 e0 3d b1 24 ec 3d 92 58 e3 bd
       0.102968276 0.10956599 0.11530436 -0.11100878
0003d0 bd cf 10 3d e8 20 a0 bd 6a 94 09 3e 4a b6 90 bd
       0.035354365 -0.07818776 0.13435522 -0.07066019
0003e0 bb 36 94 3d b7 f6 a0 3d 91 a9 07 3e 25 bf 9f be
       0.072370015 0.07859557 0.13248278 -0.3120052
0003f0 d0 72 15 be 6b 73 05 3e a0 52 14 bb 2e 71 02 be
       -0.14594579 0.1303231 -0.0022632256 -0.12738487

output.bias f4 [10]
000000 de d6 59 3e c7 4e b9 be e4 53 a0 bd be fb 5a be
       0.21273372 -0.36192915 -0.07828501 -0.21385095
000010 c6 2a 6e be e4 c3 f5 bd bd db c5 be d2 eb 1e bf
       -0.23258504 -0.12000254 -0.3864421 -0.62078583
000020 df 4f 8a 3f 00 5b 93 3e
       1.0805625 0.28780365
